Server/model.pth (torch, 120006 bytes, 127 tensors)

prescalers.time_idx.weight f4 [16, 1]
000000 69 27 0e bd 7b 02 8d be dc be 97 bf 02 b2 55 bd
       -0.034705553 -0.27540955 -1.1855121 -0.052171715
000010 d8 dd bd bd 8d 92 8b bf fe 27 1f 40 04 98 bb be
       -0.09270829 -1.0904099 2.486816 -0.36639416
000020 b8 1c 94 bf 9c 8b 6c bf 18 8d 8b 3e bf c9 85 3f
       -1.1571264 -0.92400527 0.27256083 1.0452193
000030 c6 3c cd 3f 86 f8 40 be 02 9a aa be 83 25 a9 bf
       1.6034172 -0.18844804 -0.33320624 -1.3214573

prescalers.time_idx.bias f4 [16]
000000 01 56 d3 bd 2c 9d 1a be 94 6c ae bf 26 f6 ac bd
       -0.10319138 -0.15099019 -1.3626885 -0.084453866
000010 07 f3 1a 3c 6d 1e 0a c0 44 a7 17 bf 57 81 db be
       0.009457356 -2.158107 -0.592396 -0.42872116
000020 50 27 9f bf f4 d8 71 bf b2 32 8e 3f 0a cd b5 3f
       -1.2433872 -0.9447167 1.1109221 1.4203198
000030 12 01 d0 3f de b2 fb bd 02 87 81 3e a5 0d df be
       1.6250327 -0.122899756 0.25298315 -0.43565097

prescalers.feed_pressure.weight f4 [16, 1]
000000 d5 6f 32 bb 02 62 60 3f 0b d3 a5 3e 52 7a 99 3f
       -0.0027227302 0.8764955 0.32387576 1.1990454
000010 bd 65 08 40 73 63 06 3f 86 c4 77 bf 3d b0 4f 3f
       2.1312096 0.524955 -0.96784246 0.81128293
000020 dd 7a c4 bf d5 dc 52 3f 50 f1 20 3f 46 2c 6f 3e
       -1.5349995 0.8236821 0.62868214 0.23356733
000030 03 67 ce be df bf 88 3c 89 9d e8 3e 9d 7b 4c 3f
       -0.40312967 0.016693054 0.4543269 0.7987612

prescalers.feed_pressure.bias f4 [16]
000000 0b 90 57 bb 7e 1f 80 bf a0 ec ee be 06 a1 c0 bf
       -0.0032892253 -1.0009611 -0.46664906 -1.504914
000010 64 7b 0c 3f e2 44 25 bf 13 cb 5b 3f 77 45 94 bf
       0.5487578 -0.6455823 0.8585674 -1.1583699
000020 d5 25 62 3e 68 aa 28 3f d5 1e 1d 3f 2d 9b 08 3e
       0.22084744 0.6588502 0.6137517 0.13340445
000030 2e 67 e0 3e ff 61 8c 3c bc 9a 5b be 4f 70 5b 3f
       0.4382872 0.017136572 -0.21445745 0.85718244

encoder_variable_selection.flattened_grn.resample_norm.mask f4 [2]
000000 5c 98 a5 3e f7 c9 a9 be
       0.32342803 -0.331619

encoder_variable_selection.flattened_grn.resample_norm.norm.weight f4 [2]
000000 e8 44 55 3f ed 44 55 3f
       0.8330827 0.833083

encoder_variable_selection.flattened_grn.resample_norm.norm.bias f4 [2]
000000 41 d0 d5 bd de cf d5 3d
       -0.10440112 0.10440038

encoder_variable_selection.flattened_grn.fc1.weight f4 [2, 32]
000000 e7 c3 c0 3c 2f 85 5f be 5d 44 58 3e b1 5e cf be
       0.023530914 -0.2182815 0.21119829 -0.4050193
000010 05 bf ee 3e 5f 2d af 3e 0f f6 fa 3d 40 05 4e 3e
       0.4663011 0.34214303 0.12253963 0.2011919
000020 5a e8 1c 3f 4d c2 8d be a9 2e 11 3d 7d 3f f7 be
       0.6129204 -0.27687302 0.03544489 -0.48290625
000030 f1 35 ba be d0 dc d4 3b d9 c0 ca be f8 f9 3f bd
       -0.3636928 0.0064960495 -0.39600256 -0.04686925
000040 82 af 27 3e c8 98 ef 3e 05 26 40 3e 9f 3b 78 3e
       0.16375545 0.4679625 0.18764503 0.24241494
000050 37 7c ef 3e 5a 29 0d 3f 92 37 ef 3d 4d 26 27 3e
       0.46774456 0.5514122 0.11680521 0.16323204
000060 0f d8 1c be 1b e1 28 3d 4e c4 91 be 1e 48 c5 3e
       -0.15316795 0.041230302 -0.2847008 0.38531584
000070 7b 91 fd be 3e 32 33 3d e2 ee 05 be 1b 07 84 3e
       -0.49525055 0.043749087 -0.13079408 0.2578667
000080 b9 a9 8b 3e a8 65 49 bd 83 f8 f1 be 9c 2e 1f 3e
       0.27277926 -0.049169213 -0.47259912 0.15545124
000090 b7 9f 1a 3b be cd 1b bd 01 8b 28 3d ef 0a f8 bd
       0.0023593733 -0.038038008 0.04114819 -0.121114604
0000a0 21 7e b8 bd 00 da b0 3e 87 7f 03 3f d1 d6 3d 3e
       -0.09008432 0.3454132 0.51366466 0.18538977
0000b0 44 7d 4e 3e 26 f2 c1 3e c9 19 54 3d 15 ff 78 3e
       0.20164973 0.37880057 0.051782403 0.24316056
0000c0 14 ab fe 3c 2a 16 ba 3e 55 19 86 be 22 7a ba be
       0.031087436 0.36345035 -0.26191202 -0.36421305
0000d0 12 22 bb be 5c 2e cb bd c2 c6 0f 3e d8 89 0c bf
       -0.3654943 -0.09920952 0.14040664 -0.5489783
0000e0 d3 f8 76 3e 16 3a b1 be 86 64 8f 3e 3f 07 76 3e
       0.24118356 -0.3461463 0.2800638 0.24026202
0000f0 d1 6c c5 3e d3 c2 b3 3c 53 f3 d3 3e 6d c9 88 bc
       0.38559583 0.021943485 0.4139658 -0.01669761

encoder_variable_selection.flattened_grn.fc1.bias f4 [2]
000000 74 71 4b be d4 55 33 3e
       -0.19867498 0.1751321

encoder_variable_selection.flattened_grn.context.weight f4 [2, 16]
000000 bc 1c 07 3e f9 52 26 bf 1f 0f ee be 05 9f 49 be
       0.13194555 -0.64970356 -0.4649591 -0.19689567
000010 14 3c d7 bd 11 a5 82 be 31 40 f7 3e fe ae ad 3e
       -0.10509506 -0.2551656 0.48291162 0.3392257
000020 f6 b3 4a 3e de e8 28 bf 70 6b dd be 14 c4 16 3f
       0.19795212 -0.6598033 -0.4324603 0.5889294
000030 22 dc 28 3e 4e ef d2 3d 65 d3 f0 be df 19 3f 3e
       0.16490224 0.1029955 -0.4703628 0.18662213
000040 4b 28 b2 3e 61 6b e6 3e 18 ac 4d be aa 46 22 bf
       0.34796366 0.450038 -0.2008518 -0.63389075
000050 f1 b0 ee 3e cc 58 2d 3e 56 ac 51 3e f8 e4 7e be
       0.4661937 0.16928405 0.20475897 -0.24892032
000060 a2 58 05 bd 87 71 9e 3e 80 1e 13 3f ed a1 28 bf
       -0.03255523 0.3094599 0.57468414 -0.6587208
000070 17 96 2f bf 61 e4 32 bf a1 10 b0 3d 8c 0e 14 bf
       -0.68588394 -0.6987973 0.08596922 -0.57834697

encoder_variable_selection.flattened_grn.fc2.weight f4 [2, 2]
000000 fa 08 d7 bf 76 44 85 3f 03 f7 24 bf 4d 38 04 3f
       -1.6799614 1.0411518 -0.6443941 0.5164841

encoder_variable_selection.flattened_grn.fc2.bias f4 [2]
000000 48 56 27 3e 74 f5 48 3e
       0.16341507 0.19624883

encoder_variable_selection.flattened_grn.gate_norm.glu.fc.weight f4 [4, 2]
000000 5f e2 36 bf 35 54 ea be e1 47 af bc 47 05 f7 bd
       -0.71439165 -0.4576737 -0.02139658 -0.120615534
000010 13 05 8a 3f e4 ae df 3e a7 97 21 bf 4a 7b 28 be
       1.0782799 0.43688118 -0.6312203 -0.16453281

encoder_variable_selection.flattened_grn.gate_norm.glu.fc.bias f4 [4]
000000 60 73 d7 bd f0 67 ce 3d e2 05 47 3e f9 a0 39 be
       -0.10520053 0.10078418 0.19435838 -0.18127812

encoder_variable_selection.flattened_grn.gate_norm.add_norm.norm.weight f4 [2]
000000 0d f0 8c 3e 6a f0 8c 3e
       0.27526894 0.2752717

encoder_variable_selection.flattened_grn.gate_norm.add_norm.norm.bias f4 [2]
000000 ca eb e2 bf d8 eb e2 3f
       -1.7728207 1.7728224

encoder_variable_selection.single_variable_grns.time_idx.fc1.weight f4 [16, 16]
000000 3d f6 f5 be 81 b8 03 bf 00 d2 a7 be 2c f6 a6 3e
       -0.48039427 -0.51453406 -0.32777405 0.3260969
000010 66 0d 40 3e 33 16 ce be d7 86 3d 3e 5d a8 10 bf
       0.18755111 -0.40251312 0.18508469 -0.565069
000020 f6 4f 4d be 67 37 ed be 94 9b ba 3d bb e6 f3 3d
       -0.20050034 -0.4633133 0.091117054 0.11909243
000030 0a b2 14 3e d0 f3 0e bf e0 3f 43 bf 37 84 a4 be
       0.14521042 -0.5584078 -0.7626934 -0.32132122
000040 5f a0 5f be 5d dd ae 3f 70 a2 25 3d c0 18 00 3f
       -0.2183852 1.3661305 0.040438116 0.50037766
000050 34 64 0b 3f 4b 22 79 bf e0 cc 8e bf 52 c8 1d 3e
       0.5444977 -0.9731795 -1.1156273 0.15408447
000060 7e ba 95 3e d0 a6 b5 3e 7a 48 ba 3f 7e 13 14 3f
       0.29243845 0.3547883 1.4553368 0.5784224
000070 28 76 6a bd b1 e0 83 be 96 2d 80 3f bf 39 0f 3f
       -0.05724159 -0.25757363 1.0013912 0.5594749
000080 fb 54 cc 3e b7 a8 1c 3f 26 b5 78 bf 56 1d d7 3e
       0.39908585 0.6119494 -0.9715141 0.4201457
000090 73 21 11 3f ce c0 14 c0 e7 4f 29 c0 cd d8 c6 bf
       0.56691664 -2.3242679 -2.6455019 -1.5534912
0000a0 f7 44 59 bf 02 89 ef 3d e1 0d e5 3f 7d eb 97 3f
       -0.84870857 0.11696054 1.789486 1.186874
0000b0 dc 1e 59 3f 6e 1b 73 3f 11 0c 24 40 79 e1 ac 3f
       0.8481271 0.9496373 2.5632365 1.3506309
0000c0 ba 12 5b be 3f d5 ab bf f6 05 0e bf a2 9d 01 be
       -0.21393862 -1.3424453 -0.55477846 -0.12657788
0000d0 ef 16 67 bf 51 94 d1 3e 78 c4 fb 3f d0 b2 80 3d
       -0.9026937 0.4093347 1.9669333 0.06284106
0000e0 c4 44 1b bf 3d 7b 34 bf 71 6d 9b be 8c 3c 01 3e
       -0.60651803 -0.70500547 -0.30356935 0.12620753
0000f0 0e c8 03 3f 59 27 8b bd d1 4e 13 c0 36 85 1b c0
       0.51477134 -0.06794614 -2.3016856 -2.4300056
000100 7c 32 22 3f 47 9b 62 3f 59 c9 d6 bd 04 82 68 be
       0.63358283 0.88518184 -0.10487623 -0.22705847
000110 13 db f0 be 0d 5b 39 bf dd 0a bc bf 77 bd 32 bf
       -0.4704214 -0.7240456 -1.4690815 -0.6982035
000120 85 f4 8d be 82 32 b9 3e 52 e9 29 3f 1a 5a 25 bd
       -0.27725616 0.36171347 0.66371644 -0.04036913
000130 58 b5 84 bf 08 52 cb bd 2b f6 d2 3f 6e 81 0d 40
       -1.0367842 -0.099277556 1.6481375 2.2110248
000140 b5 a3 ac 3e c0 79 79 bf e6 e1 62 bd cf 1e d7 be
       0.3371865 -0.974514 -0.055391215 -0.42015693
000150 82 a5 bc be 67 54 dc 3e 80 6c 05 3f 9a a2 a2 bd
       -0.36845022 0.43033144 0.5211868 -0.0794117
000160 24 2f 3f 3f 61 ba f5 be bc b8 75 be b2 49 09 bf
       0.74681306 -0.47993758 -0.23996252 -0.53628075
000170 d0 73 23 bf 41 eb 4d 3e c2 eb a2 be e5 5f 73 bd
       -0.6384859 0.20109273 -0.31820494 -0.059417624
000180 79 8f e2 be 8f 44 04 bf a6 40 e6 3e 52 d2 8d 3c
       -0.44250086 -0.5166711 0.44971198 0.017312203
000190 46 c8 73 be 31 59 03 3f 18 69 2f 3e 18 05 b1 3e
       -0.23806867 0.5130797 0.17129934 0.345742
0001a0 16 b6 ae 3e 63 33 e4 be 14 f2 5c bf 41 40 ed be
       0.34123296 -0.44570455 -0.8630688 -0.46338084
0001b0 ba 4b 12 bf d2 e6 0d be d1 43 0c bf 6e 11 4f bf
       -0.571468 -0.13857582 -0.5479098 -0.8088597
0001c0 cb cb c1 be bb f3 1c bf 70 8e ee be 89 34 ae bf
       -0.37850794 -0.61309403 -0.46593046 -1.3609782
0001d0 5e d6 59 bf 62 ee 8e bd 44 79 28 40 25 bd b1 3e
       -0.85092723 -0.06979062 2.6324015 0.34714618
0001e0 c2 1c 05 bf a9 e4 33 be cc 39 62 bf fc 09 82 3f
       -0.51997006 -0.17567696 -0.8836944 1.0159297
0001f0 eb 07 a3 3e c8 f3 7d bf f1 ee b7 bf db 02 d4 bf
       0.31841978 -0.99200106 -1.4369794 -1.6563371
000200 e0 7e 36 bf a7 39 e8 be a1 1d 09 c0 df 5e d9 be
       -0.71287346 -0.45356485 -2.1424334 -0.42455193
000210 69 91 b1 bd e7 25 93 3d 11 8b af 3f 48 66 83 bd
       -0.08670313 0.07184964 1.3714315 -0.06415993
000220 2e 4c 9a bf 18 d2 c9 bf 67 f0 1a be a5 6a 30 3f
       -1.2054498 -1.576724 -0.15130769 0.68912727
000230 21 88 9f 3f 08 19 0e 3d a1 2b 36 bf 53 c2 7f bf
       1.2463418 0.03469184 -0.7116032 -0.9990589
000240 bd c6 18 3e 82 e5 31 bf ae da 81 3f 86 9f 2c be
       0.14919563 -0.69490826 1.0144861 -0.16857728
000250 5f 64 65 bd 6d 85 d0 3d aa 69 71 3f 33 7d a6 3e
       -0.056003924 0.10181699 0.94301856 0.32517394
000260 44 21 70 be a5 81 03 3c 39 34 07 bf 85 e3 00 bf
       -0.2345019 0.008026515 -0.5281406 -0.5034717
000270 5d e0 92 bf f5 f7 56 be b7 a5 8c bf 41 cd 43 bd
       -1.147472 -0.20993026 -1.0988072 -0.047803167
000280 84 e0 e0 be 7e b6 b3 3d 48 c7 ca bf 52 5e 6e be
       -0.43921292 0.08775042 -1.5842066 -0.23278168
000290 4f 11 9c 3e 73 39 ed 3d ba 71 82 3f f8 cf b7 be
       0.30481955 0.11583223 1.0190957 -0.35900855
0002a0 27 72 b1 bf ff 71 6e bf 81 e3 e6 be 08 0c 86 3f
       -1.3862962 -0.93142694 -0.45095447 1.0472422
0002b0 c0 85 a5 3f 7f 05 65 be 71 56 85 bf 23 24 24 c0
       1.2931442 -0.22365378 -1.0417005 -2.5647056
0002c0 09 39 05 bf 18 85 09 bf 70 2e 85 3f 05 7f 86 be
       -0.52040154 -0.5371871 1.0404797 -0.26268783
0002d0 53 cc d2 bd d3 8f 27 be 37 60 00 be 70 3e 71 bd
       -0.10292878 -0.16363458 -0.12536703 -0.058897436
0002e0 a2 c4 14 3e 1b 23 92 be 63 7b 50 be b0 62 c2 be
       0.14528134 -0.28542408 -0.20359568 -0.37965918
0002f0 5a 68 32 bf cc e3 09 be bb 58 b3 3e 0c a1 a0 3d
       -0.6969048 -0.13465804 0.35028633 0.07843217
000300 de ec 0e 3d 3d ca 40 3c 3f 47 3d 3f 1b f7 69 be
       0.034893863 0.011766967 0.7393684 -0.2284817
000310 07 64 df be 34 98 80 3e 06 40 81 3f 3c 3b 7c 3f
       -0.43631002 0.25116122 1.0097663 0.98527884
000320 b7 9c f3 3e 82 41 c2 3d f3 ab 07 bf 20 bc f1 be
       0.475805 0.09485151 -0.5299675 -0.4721384
000330 47 6a cd be 4c ee 9b 3e 14 16 bf be 6a 8a 48 bd
       -0.40120146 0.30455244 -0.37321532 -0.048960127
000340 d9 b6 08 3c 92 0f 92 3d 2b b9 38 bf 8c 89 e6 3e
       0.0083443755 0.07131876 -0.72157544 0.45026815
000350 3b 07 38 be 5f 25 1d 3f 32 0b 24 3f f4 96 4e 3d
       -0.17971508 0.6138515 0.6407958 0.05043693
000360 2a fe ad bd ec 6a 6c bf 0a a2 36 be 5d e5 8b 3c
       -0.084957436 -0.9235065 -0.1783525 0.017077142
000370 4c 49 8b 3e 9e c7 15 be a9 a4 e0 be 8d 33 c3 bf
       0.2720436 -0.14626929 -0.43875626 -1.5250107
000380 95 83 f0 3e a0 e2 cb 3c 93 46 96 be 45 b8 1a 3f
       0.4697539 0.024888337 -0.2935072 0.60437423
000390 26 34 db bd be 35 d8 be 84 46 c3 bf 47 0f 92 be
       -0.10703306 -0.42228502 -1.5255895 -0.2852728
0003a0 8d f5 98 be e1 1c bf bf 3c a1 31 3f d1 23 80 3d
       -0.2987484 -1.4930688 0.6938665 0.062568314
0003b0 7a 32 61 3e 83 fd 29 3e 3e 9a e4 3f c5 ff 86 3f
       0.21991912 0.16600613 1.7859571 1.0546805
0003c0 25 d5 0e 3e aa 03 25 bf ba 82 fa bc d9 b5 53 be
       0.13948496 -0.64458716 -0.030579913 -0.20674838
0003d0 0a f1 6a 3e bd a7 01 3f 9f 72 e9 3e 23 81 78 be
       0.22943512 0.50646573 0.4559526 -0.24268012
0003e0 f2 0d 05 bf 97 8e 7b 3e a1 2a 93 3e 2a c8 1f 3f
       -0.51974404 0.24566112 0.2874346 0.624148
0003f0 81 04 2b be d5 03 14 bf 7d cd 5a be ac e8 44 bf
       -0.16700937 -0.5781835 -0.2136745 -0.7691753

encoder_variable_selection.single_variable_grns.time_idx.fc1.bias f4 [16]
000000 78 ef 2e bd 39 47 2b 3f cd cb f4 3f bc dc e1 be
       -0.042708844 0.6690555 1.9124695 -0.4411372
000010 35 30 2b 3f 13 f9 05 bf 18 7c 19 bf c7 10 4e be
       0.66870433 -0.5233318 -0.5995498 -0.20123588
000020 e4 91 49 be 43 45 f6 be ec 72 83 3d 2e 94 97 be
       -0.19684559 -0.48099717 0.06418404 -0.2960524
000030 77 1a d3 be 74 3b 91 be 60 b1 54 3f 0b a1 bb be
       -0.4123113 -0.28365672 0.8308315 -0.36646304

encoder_variable_selection.single_variable_grns.time_idx.fc2.weight f4 [16, 16]
000000 02 d3 51 be 16 de 9c be ee 2e 17 c0 97 77 84 bf
       -0.2049065 -0.30638188 -2.3622394 -1.0348996
000010 3e 5a 10 bf bf 60 a4 3f a7 26 c8 3f 36 73 9d be
       -0.563877 1.2842025 1.5636796 -0.3075196
000020 9b 1a da bf ff 6f 17 40 c0 cd d3 bf 71 95 61 3f
       -1.7039369 2.3662107 -1.6547165 0.88118654
000030 a8 04 b2 3f 9e 7f 7f bf aa 42 c3 bd fd 80 d3 be
       1.3907671 -0.99804103 -0.095341995 -0.41309348
000040 12 65 c2 bd 3a bf 40 bf e5 18 e4 bf 35 ad c8 bd
       -0.09491934 -0.7529179 -1.7820097 -0.097986616
000050 bd e4 b4 be 34 df 75 3f 4b ef 72 3f 71 0d 05 3f
       -0.35330763 0.96043706 0.9489638 0.51973635
000060 d6 60 18 3f 73 6c 0a 3e 18 08 6e be 5f fe 1e bf
       0.5952276 0.13517933 -0.23245275 -0.6210689
000070 49 ec 8e be f4 ba fa 3d fb bf c9 bf 01 ae 78 3e
       -0.27914646 0.1224269 -1.5761713 0.24285127
000080 09 4c 6d bf 97 ee 68 bf 54 9a a8 bf 0e 45 1b bf
       -0.92694145 -0.9098906 -1.3172097 -0.60652244
000090 9b bd 04 bf e4 e9 88 3f 33 0b 7a 3f 99 3d 3a 3e
       -0.51851815 1.0696378 0.9767334 0.1818756
0000a0 da de 0d bf dc 16 70 3f f3 02 a3 bf 83 54 14 3f
       -0.5541817 0.9378488 -1.2735275 0.57941455
0000b0 aa 97 1d 3f 47 54 9b be 2b 91 20 be e3 8a 01 bf
       0.61559546 -0.30337736 -0.15680377 -0.5060255
0000c0 7c 00 bb 3e b9 fa 06 3f d4 ba 17 40 b7 f6 15 bf
       0.36523807 0.5272632 2.370778 -0.5857958
0000d0 9a 7b c2 3f 68 9d 9b bf 81 40 ed bf 64 f9 e9 bf
       1.519397 -1.2157412 -1.853531 -1.8279233
0000e0 a5 8f 42 3e 06 df c1 bf 7d 2c fb 3e d7 fb 7e 3e
       0.19000109 -1.5146186 0.4905738 0.24900757
0000f0 e6 97 b5 bf d4 22 9d 3e c6 b6 90 3f 13 5c 53 be
       -1.4186981 0.30690634 1.1305778 -0.20640592
000100 cf ba 05 3e 9f 5c 8f be 0e 6d 3f 3e b3 1e 99 3f
       0.13059543 -0.28000352 0.18693945 1.1962494
000110 2d d8 a0 3d e0 08 29 3f 94 bd bb 3d ef 04 75 3f
       0.07853732 0.6602917 0.091670185 0.95710653
000120 40 98 82 3f 03 01 b1 3e 8a 65 26 3b c3 1e 04 be
       1.0202713 0.34571084 0.0025390112 -0.1290236
000130 9f ae 94 be 3b 41 9a 3e b3 17 e3 be 04 d3 be 3e
       -0.29039475 0.30127892 -0.4435402 0.37270367
000140 69 ab 9f be 78 9b a6 bf d4 60 fd bf 2a a2 35 be
       -0.31185463 -1.3016195 -1.9795175 -0.17737642
000150 e2 7e 8c be a0 db 76 3f 38 48 17 3f 97 00 ad bd
       -0.27440554 0.9642887 0.5909457 -0.08447378
000160 19 58 08 bf 2e 1a 03 3f 29 72 17 bf 05 50 4a be
       -0.53259426 0.5121182 -0.5915857 -0.19757088
000170 64 eb d6 3e 55 bb df be 64 31 84 bf b2 d5 81 bd
       0.41976464 -0.4369761 -1.0327573 -0.06339587
000180 c1 e0 0f bf c2 40 7e bf cb d7 22 c0 a6 48 79 be
       -0.5620232 -0.9931756 -2.544421 -0.2434412
000190 9f 80 9c bf ab 02 a3 3f fc 21 c3 3f 64 24 13 3f
       -1.2226752 1.2735189 1.5244746 0.574774
0001a0 ac 9e 09 bf f1 69 b8 3f b4 53 09 bf 29 a5 2a 3e
       -0.5375774 1.4407331 -0.53643346 0.16664566
0001b0 b9 75 d8 3f ff a1 da 3d df 81 5a bf 2a c1 85 be
       1.6910926 0.106754296 -0.8535442 -0.26123935
0001c0 26 bc 80 3c 75 6e cc bd 04 26 88 bf 42 ef 00 3e
       0.015714716 -0.099820055 -1.0636601 0.1259127
0001d0 f9 83 07 3f 82 d2 4d 3f 48 12 b9 3f 85 6f 80 3e
       0.5293575 0.80399334 1.4458704 0.25085083
0001e0 4c 52 82 be 56 19 23 3f f7 c5 07 3e b6 a5 07 3f
       -0.25453413 0.63710535 0.13259111 0.5298723
0001f0 56 a6 05 3f 2b dc f7 bd 92 c1 95 3e 1d 7c f9 3c
       0.52206933 -0.121025406 0.29249245 0.03045469
000200 44 7c 6a bf 92 4d cf be c5 b4 a6 bf a8 f1 8d be
       -0.91595864 -0.4048887 -1.3023916 -0.27723432
000210 dc c0 68 bd 26 46 3a 3f a7 3f 87 3e 14 9e 68 3e
       -0.05682455 0.7276329 0.2641575 0.22716552
000220 1e 8d ca be d5 60 da 3e 0d 40 5e bf f3 42 0f 3f
       -0.3956079 0.42652002 -0.86816484 0.5596153
000230 bc 6e 8a 3f 15 3d e7 be 90 65 e2 3d 23 51 9a be
       1.0815043 -0.4516379 0.11054528 -0.30140027
000240 5b d8 3c 3f f5 c2 2b bf 72 5a be be 11 52 88 3f
       0.7376763 -0.67094356 -0.3717838 1.0650045
000250 2e ae 95 bf a9 18 a8 be cf 80 03 bd 65 d3 0d 40
       -1.169378 -0.32831314 -0.032105263 2.2160275
000260 59 3e 9c 3f a6 07 a4 be b8 a0 d7 3f 2e 51 06 bd
       1.2206527 -0.32037085 1.6845922 -0.032792263
000270 a4 3b 04 3f 57 9d db 3e 94 05 97 bd cd 6f b8 bd
       0.51653504 0.42893478 -0.07374111 -0.09005699
000280 5e e3 2d bf eb 03 f4 be 73 a9 e6 bf 85 4b 58 be
       -0.6792506 -0.4765924 -1.8020462 -0.21122558
000290 e2 9e 5a bf e1 42 c7 3f 6a 68 b5 3f d2 51 2b 3e
       -0.85398686 1.5567285 1.417249 0.1673043
0002a0 49 d7 dd be ff a3 b5 3f 5e 2e 08 bf 97 52 9a be
       -0.43328312 1.4190673 -0.5319575 -0.30141136
0002b0 5f 63 83 3f 6f cf 51 bf 6e 4a 82 bf f6 de 0a bd
       1.0264701 -0.81957144 -1.0178964 -0.03390404
0002c0 e7 86 10 be 05 ab 47 bf 6e 95 7f bf e6 95 24 3f
       -0.14113961 -0.7799533 -0.99837387 0.64291227
0002d0 0b 20 4e bf 9c f8 a0 3e 7d 0e e8 3e d6 d7 c0 3f
       -0.80517644 0.31439674 0.45323554 1.5065868
0002e0 25 b9 17 3f 05 d3 bf be 50 15 9a 3f 23 ad 01 bf
       0.59266883 -0.37465683 1.2037754 -0.5065481
0002f0 5e 83 2a 3e 0a 58 8e 3e de fc cd bf b9 68 e5 bd
       0.16651675 0.27801543 -1.6092794 -0.11201615
000300 83 3b 2d bf ab fd 9a bd 0b a9 aa be 79 59 27 bf
       -0.6766893 -0.075679146 -0.33332095 -0.653709
000310 b3 bd f2 3e b7 a3 29 3f aa 6b 89 3f 7a 57 97 be
       0.47410354 0.66265434 1.0735981 -0.29558927
000320 27 96 53 bf 11 0a 41 3f 31 4d 83 bf e3 d8 50 3e
       -0.8265099 0.75405985 -1.0257932 0.20395236
000330 ce 6f f7 3c da 01 ea be 62 18 59 be 9f bd 78 be
       0.03020468 -0.45704538 -0.21200708 -0.24291085
000340 d7 9d 2a 3f f7 f2 77 bd 75 f0 91 be 1f 4a a9 3f
       0.66647094 -0.060534444 -0.28503767 1.3225745
000350 b7 64 8d be 15 a8 1b bf 9a d3 63 bf 26 38 c3 3f
       -0.27615902 -0.6080335 -0.88994753 1.525151
000360 07 b1 bd 3f f9 58 b2 be 00 70 10 40 32 04 85 be
       1.481965 -0.34833506 2.256836 -0.25979763
000370 7c f1 25 be c6 d8 44 3f 7f 19 13 bf 52 0e 89 3e
       -0.162054 0.7689327 -0.5746078 0.26768738
000380 0c d1 af 3d 6c 7c 68 3f f4 f2 21 3f 60 d3 30 bf
       0.085847944 0.9081485 0.6326134 -0.6907253
000390 94 57 be 3e 87 7d 2c bf 0d 6b 0b bf 57 00 1d bf
       0.37176192 -0.6737904 -0.5446022 -0.61328644
0003a0 aa 82 03 bf aa f4 18 be 64 99 15 bf 0b 4c 0a bf
       -0.5137125 -0.14937082 -0.5843718 -0.5402228
0003b0 fc 1b ea be de c0 42 bf 01 8e 90 be e8 15 2f be
       -0.45724475 -0.7607554 -0.2823334 -0.170982
0003c0 b4 8f bd 3d ab c9 34 3e 48 2b a2 3f e0 c0 26 3f
       0.09255925 0.17655055 1.2669458 0.65138054
0003d0 2f 32 e9 3e 11 53 2a be a8 c1 07 bf 9d af a1 3e
       0.455461 -0.1663325 -0.5302987 0.31579295
0003e0 87 18 c1 3e 22 89 4d be 80 d7 b0 3f 68 e6 19 3f
       0.37714025 -0.20071843 1.3815765 0.601172
0003f0 8e 50 44 bf 20 7f e6 3e 5c a7 cc 3c 70 89 c3 3c
       -0.76685417 0.45018864 0.024982147 0.023869246

encoder_variable_selection.single_variable_grns.time_idx.fc2.bias f4 [16]
000000 15 f2 99 bf 19 e7 01 be 34 52 46 bf 19 0e 93 3f
       -1.2027003 -0.12685813 -0.7746918 1.1488677
000010 e1 64 0d bd 3e 31 1f bf c4 ee 3f bf ab 2e c1 be
       -0.034520034 -0.6218451 -0.749737 -0.37730917
000020 2e 44 0b bf ab 8a c8 3d 13 4e 70 bf 0e 3a 93 ba
       -0.5440091 0.09792074 -0.9386913 -0.0011232512
000030 ab f7 d2 be 29 ab 9b 3e 1a 5d 92 bc 9e 2c 13 3f
       -0.4120458 0.30404022 -0.01786666 0.57489955

encoder_variable_selection.single_variable_grns.time_idx.gate_norm.glu.fc.weight f4 [32, 16]
000000 5f f2 a1 bf 53 6b af bf 2e e2 73 bf 1f 96 8f 3f
       -1.2652091 -1.3704628 -0.95267 1.1217688
000010 6c 68 04 3f c9 4b c2 bf 8b b2 50 bf 43 af 8c bf
       0.51721835 -1.5179378 -0.81522435 -1.0990986
000020 45 3c 7a bf 82 59 a2 3f 4a 9f 4f bf b1 dd 6c bd
       -0.97748214 1.2683566 -0.8110243 -0.05782861
000030 30 2b 80 bf ca 83 87 3f bb 66 a2 be 3f 25 8b 3f
       -1.001318 1.0587094 -0.31719002 1.0870742
000040 ec 1b ad 3e 9e ed 1f bf 7d 47 a9 3e 94 32 b9 3e
       0.33810365 -0.6247195 0.33062354 0.361714
000050 b1 3d 3f bf 2e 6d 3a 3d b6 d8 6c 3e e4 1f 0e 3f
       -0.7470351 0.045514278 0.23129544 0.5551741
000060 f3 d7 3d 3e 50 c3 bd bf 9b 34 e0 bc 04 cd af bf
       0.1853941 -1.482523 -0.027368834 -1.3734441
000070 4f 0e 15 3f cb aa 18 c0 24 6c 48 3f 95 31 47 3e
       0.5822496 -2.3854244 0.7829001 0.19452508
000080 66 63 5a bf a7 f7 ad be 68 18 53 bf 34 de 02 3f
       -0.8530792 -0.33978006 -0.82459116 0.51120305
000090 62 47 ad 3d 2c e4 33 bf 73 fd ca bf 4f 9f e3 be
       0.08460881 -0.7027004 -1.5858597 -0.4445748
0000a0 4b 83 ff be 2f 72 11 be ae 9e 5c bf aa 94 d7 3e
       -0.49904856 -0.14203714 -0.86179626 0.4210561
0000b0 d3 92 d7 be 5d e8 95 3e 63 ee 14 bf f1 cd 14 3f
       -0.42104205 0.29278842 -0.5817625 0.5812674
0000c0 a3 73 48 be cc 24 10 3f 6c 99 d0 3e 9a 09 b2 bf
       -0.19575362 0.5630615 0.40742052 -1.390918
0000d0 7b 40 65 3e 2f 2b 8f 3f ee e2 04 3f 0f 75 34 3e
       0.22387879 1.1185054 0.5190877 0.1762278
0000e0 6c af 69 3f 87 23 89 3f ef 22 02 3e 2e cd ae 3f
       0.912833 1.0713967 0.12708639 1.3656366
0000f0 43 bf 7b be 8e 16 88 3f 82 6a 58 bf ea 42 b8 bd
       -0.2458468 1.0631883 -0.8453752 -0.08997138
000100 2c 14 f6 3c fe c0 56 bf dd 4d 51 3d a1 c3 6b bd
       0.030038916 -0.8388823 0.051099647 -0.057559613
000110 8f 4f 01 bf 43 93 28 be 0d 3e a1 bd f2 8f 18 be
       -0.5051202 -0.16462426 -0.07873163 -0.14898661
000120 56 60 d3 be f3 ac 1e be 24 9a 58 be f9 87 8b be
       -0.41284436 -0.15495662 -0.2115255 -0.27252176
000130 f9 cd a4 3d da 67 55 be 23 1c ce 3e 2d bf 92 bd
       0.08047099 -0.20840397 0.40255842 -0.0716537
000140 b7 c7 f8 3c 7a 79 5b 3f 4d 95 03 3f 70 a8 8b 3d
       0.030368669 0.85732234 0.5139969 0.06819236
000150 2b a1 0f bf e9 d3 2b 3f f4 6c 9c 3f f0 30 10 3c
       -0.561053 0.67120224 1.222075 0.00880073
000160 68 46 af 3e 83 f9 90 3f 78 e1 70 3e 25 b2 27 bb
       0.34233403 1.1326145 0.2352351 -0.002558836
000170 82 13 ef be 5f e8 6e be a2 fe ec be 05 9b d5 be
       -0.4669457 -0.2333083 -0.4628802 -0.41719833
000180 b8 23 40 bf a1 85 36 bf 89 f7 7a 3e 8a 00 0e 3f
       -0.750545 -0.7129765 0.2450849 0.5546957
000190 cd 17 43 3d f2 23 1e bf b8 d4 ae be 43 2b 98 3d
       0.04763012 -0.617736 -0.34146667 0.074301265
0001a0 a8 e8 96 3e a4 46 c4 be 55 87 23 bc b9 fe 94 bf
       0.29474378 -0.38335145 -0.009980996 -1.1640235
0001b0 01 02 e1 3c 31 9c 72 bf b3 5e 60 3e c3 c9 1d 3d
       0.027466776 -0.9476958 0.21911125 0.038522493
0001c0 fd bb a3 3f f4 b6 26 3e 8d 1f 34 3f 93 ef 96 bf
       1.2791744 0.16280729 0.7036064 -1.1791862
0001d0 8a 8b a0 be 93 1c dc 3e bc de 15 3f 8d 25 5d 3f
       -0.3135646 0.4299055 0.5854299 0.8638542
0001e0 54 a5 fc 3e 99 b7 6b bf 58 6b 20 3f 68 10 b3 be
       0.49344885 -0.9207702 0.62663794 -0.34973454
0001f0 f3 f2 88 3f aa db 5d be 57 8d fc bd fb e1 fe be
       1.0699142 -0.21665826 -0.12331646 -0.49781784
000200 2d a8 4d be 7a 70 cd 3d d1 10 08 be 9d 62 f4 be
       -0.20083685 0.10031219 -0.13287665 -0.47731486
000210 b7 67 35 bd 06 df 15 be c3 87 d6 bb f7 8c fb bd
       -0.044288363 -0.14635858 -0.006546946 -0.12282746
000220 73 bd 75 be e4 9d 50 3e 74 a6 af 3b 8f 45 c3 3e
       -0.2399805 0.2037273 0.005360419 0.38139006
000230 52 86 73 be 4b a2 b5 be 6f 93 6e be 64 62 f6 3d
       -0.23781708 -0.35475382 -0.23298429 0.12030485
000240 47 3e 44 3e b2 bb 66 be 9a bd 9b be 0e 45 08 be
       0.19164382 -0.22532538 -0.30418092 -0.13307592
000250 13 80 17 3e 51 75 be bd 60 8d c9 be 9e 3b b0 be
       0.1479495 -0.0929972 -0.39365673 -0.34420484
000260 83 af 1f be 41 e2 96 be 17 51 b1 bd 40 e7 a3 38
       -0.15594296 -0.29469493 -0.08658045 7.815519e-05
000270 e5 6f fd bd 1c 6d f7 be 60 38 92 3e 47 1e 15 bd
       -0.12374858 -0.4832543 0.28558636 -0.036405828
000280 4f a7 34 bf 72 4d 04 3f 07 e9 e9 be d6 cd 65 3e
       -0.7056779 0.5168067 -0.45685598 0.22441801
000290 da dd 1c be 46 92 61 bf bb 0f 1d 3d a9 31 c4 be
       -0.15319005 -0.8811382 0.03834508 -0.38319138
0002a0 be 6c 15 3c 05 ba 16 3f cb 3d 0e bf c8 51 3a be
       0.009120164 0.58877593 -0.5556304 -0.1819526
0002b0 f5 c9 05 bf 68 03 24 3e d4 7e 70 3d 5c 74 01 3e
       -0.52261287 0.16016924 0.058714703 0.12642044
0002c0 fe c9 9c bd ec c3 88 3e ea d2 d0 bd 36 f3 e5 be
       -0.076557145 0.26711977 -0.10196479 -0.44912118
0002d0 3c 0c d0 3e 82 2a 14 3f 88 b7 76 bd 32 ef e4 3e
       0.40634334 0.5787736 -0.060233623 0.44713742
0002e0 d0 d2 03 3f b5 bc b9 3e 45 62 ba be ca 98 fd 3e
       0.5149355 0.36276785 -0.364031 0.4953063
0002f0 7e 5e b5 3d 7f ae 82 3e fe 4e 57 be 16 2e de bd
       0.088559136 0.25523755 -0.21026227 -0.10848634
000300 3d 5e b0 be aa a7 81 bf a7 13 7e bf 36 5b a3 3f
       -0.34446898 -1.0129292 -0.9924874 1.276221
000310 30 de 59 be 12 1a a9 bf f9 a2 04 bf 9c 23 43 bf
       -0.21276164 -1.3211081 -0.51811177 -0.7622621
000320 4f 06 48 bf 79 ec e4 3e 0b 1e 35 bf e0 75 0c bf
       -0.78134626 0.44711664 -0.70748967 -0.5486736
000330 62 74 48 bf 1d b1 2e bd 91 f9 0f 3f 29 82 24 3f
       -0.78302586 -0.042649377 0.56240183 0.6426111
000340 6a 14 c8 be d0 05 1e 3f 83 c2 08 bf b7 6b ab bf
       -0.39078075 0.6172762 -0.534218 -1.3392247
000350 ea 22 0a 3f 7f e1 03 be 6f 95 d6 3e 31 7b 29 3e
       0.53959525 -0.12878989 0.41910884 0.165509
000360 f3 bf ab 3e cc 00 04 40 d6 18 40 3f 2c 7f 77 3f
       0.33544883 2.0625486 0.75037897 0.96678424
000370 f5 aa 43 bf 74 2d 86 3f 8c c3 8d be a9 c9 d8 3c
       -0.76432735 1.0482621 -0.27688253 0.026463347
000380 b7 b2 17 be 44 bc f0 3e d1 56 ad bd 7d 68 2f 3e
       -0.14814268 0.47018635 -0.084638245 0.17129703
000390 c5 31 ef be 4d 53 75 3e 6b 0e 98 3b 0c cf df 3e
       -0.4671766 0.23957558 0.0046403906 0.43712652
0003a0 ed 53 7e 3e 44 3c 90 be e3 fb 93 bd d4 16 79 3e
       0.24836703 -0.2817098 -0.07225778 0.24325114
0003b0 1b 31 51 3e b9 a2 1a 3f a3 cd 9e 3d c8 e3 31 3e
       0.20428888 0.60404545 0.07754066 0.17372048
0003c0 23 42 2b bf 4a 9a 10 3e 8d 92 ee ba a8 ca 3d 3f
       -0.6689779 0.14121357 -0.0018201635 0.74137354
0003d0 4f 1c 97 be b3 80 37 bc ca 1c dc 3d 19 0e c2 be
       -0.29513785 -0.011200118 0.107476786 -0.3790138
0003e0 83 e3 a5 be 84 de 0e be 64 d2 d0 3d 0d 7d 14 3f
       -0.3240014 -0.1395207 0.10196379 0.5800331
0003f0 77 9c b6 bd d1 79 00 3f e9 68 35 3e 38 a3 02 bf
       -0.08916562 0.5018588 0.17715801 -0.510303

encoder_variable_selection.single_variable_grns.time_idx.gate_norm.glu.fc.bias f4 [32]
000000 5e 3f 36 3e db cb 5c be 74 ea 03 3f ca 11 f2 bd
       0.1779761 -0.2156214 0.5152962 -0.11819799
000010 dc ee b2 bd c2 9d d6 be fa 60 4e 3c f1 62 96 be
       -0.08736965 -0.41917235 0.012596363 -0.2937236
000020 22 3e 55 bb ca 1d d8 bd da 57 e1 bc 44 45 12 3d
       -0.0032538255 -0.10552557 -0.027507711 0.035710588
000030 b3 c0 3a be b4 4b bc be 5d 32 53 3e 06 15 12 3e
       -0.18237571 -0.36776507 0.20624681 0.14265832
000040 a9 6d 9c 3e 73 5f ab 3e 21 80 0d be 28 03 c9 3d
       0.30552414 0.3347126 -0.13818409 0.09815055
000050 b8 17 47 bf d3 54 87 3f 80 9c ab bf 1c 15 f8 3e
       -0.77770567 1.0572761 -1.3407135 0.48453605
000060 80 db 1d bf 4a 60 b2 be 1a 45 5e be 9c fc e3 be
       -0.61663055 -0.34839088 -0.21706048 -0.44528663
000070 ee d1 b2 3e 9c 59 1c be 17 24 fd be 62 95 7a be
       0.3492579 -0.15268558 -0.49441597 -0.24471048

encoder_variable_selection.single_variable_grns.time_idx.gate_norm.add_norm.norm.weight f4 [16]
000000 8f db fa 3e c6 7b cc 3e ec fa c4 3e 0a c6 28 bf
       0.48995635 0.39938182 0.38472688 -0.65927184
000010 4b ef 6b 3f 29 3d c2 3e 77 f2 a7 3f df e3 5e 3f
       0.9216201 0.37937286 1.3120869 0.87066454
000020 bb 2c 23 3f e0 58 14 3f 7d 2d 48 3e 19 54 be 3e
       0.6374013 0.5794811 0.19548602 0.37173536
000030 c6 b3 a2 3e df db f9 3e ca 50 11 3f 02 ad 4f be
       0.3177778 0.4880056 0.567639 -0.20280841

encoder_variable_selection.single_variable_grns.time_idx.gate_norm.add_norm.norm.bias f4 [16]
000000 3d 38 3b bf 35 12 7d 3e 27 e6 64 be e3 35 88 be
       -0.7313269 0.24713977 -0.22353421 -0.26603612
000010 30 01 fb bc 8a 84 66 be 5f e7 b2 39 d0 e3 43 bf
       -0.030640215 -0.22511497 0.0003412319 -0.7651949
000020 8e d0 a8 3d 71 c0 80 be 82 cc 7f bc e3 75 98 be
       0.08242904 -0.2514682 -0.015612723 -0.2977744
000030 38 c8 c2 3e 72 0a 33 3e 4d 68 9f bd d4 1e 11 3f
       0.3804338 0.17484453 -0.07783566 0.56687665

encoder_variable_selection.single_variable_grns.feed_pressure.fc1.weight f4 [16, 16]
000000 03 f1 12 be c8 f3 2f be b4 b3 e4 be 06 b8 8f be
       -0.14349751 -0.17182839 -0.44668353 -0.28070086
000010 c9 b9 dc bf 4c 9d 8a 3d 80 99 57 3e a1 85 2f be
       -1.7244197 0.06768283 0.2105465 -0.17140819
000020 d6 13 48 3f f8 e6 01 3e c4 09 43 bf 5b a2 df 3d
       0.7815527 0.12685764 -0.76186776 0.10919639
000030 2b 9f 23 3e 1e f0 db bb a7 3f e6 be 74 15 2f bf
       0.15978687 -0.006711974 -0.44970438 -0.6839211
000040 e4 89 a2 3e e0 9f 97 3e 88 3b b3 3e f1 6f b9 be
       0.31745827 0.29614162 0.35006356 -0.36218217
000050 58 10 cd bd 8a 10 08 3f 42 8e 2c 3d 2e bc 6f be
       -0.10012883 0.53150237 0.042127855 -0.23411629
000060 82 63 17 3e fc 82 96 be 05 b3 ea 3e 14 73 47 bf
       0.14784053 -0.29396808 0.45839706 -0.7790997
000070 fa 24 1c 3e 9b 30 a1 be ac 2a c8 bd 5e 42 ca bd
       0.1524848 -0.31482396 -0.09773764 -0.0987594
000080 27 9c 16 3e fb 2f 0d 3f 0e 1a 3c 3f 73 ae c0 3f
       0.14708005 0.5515134 0.73477256 1.5053238
000090 f1 4b 95 3c 0a 4b ca 3d c4 de d3 bd 00 23 82 3f
       0.018224688 0.09877594 -0.103452235 1.0166931
0000a0 79 5e 0a 3e 4a ee 70 bf c3 83 95 bf fc ea 2b bf
       0.13512601 -0.941136 -1.1680835 -0.6715543
0000b0 07 4d a0 3d 2f 70 74 be fa eb c6 3e d8 18 85 bf
       0.07827192 -0.2387092 0.3885191 -1.0398207
0000c0 7f 43 2b 3e 48 c6 c7 3f 06 f8 c7 3e 66 55 04 40
       0.16724966 1.5607386 0.39056414 2.0677123
0000d0 6f 33 53 3f 9f db 78 3e 60 0e fb be 8c db 7b 3f
       0.82500356 0.24302529 -0.49034405 0.98381877
0000e0 81 fc 25 bf 44 8b ff 3e d3 62 c1 3c 9f 5b 03 3f
       -0.64838415 0.4991094 0.023606693 0.5131168
0000f0 c3 f3 94 bd 43 72 33 be 1c b7 01 3f 5b a5 0d 3e
       -0.07273056 -0.17524056 0.5067003 0.1383261
000100 a4 b3 45 3d 73 a9 17 40 23 4a 2d 3f 35 b4 81 40
       0.04826702 2.3697174 0.6769125 4.053248
000110 0b 9a f3 3e 18 d2 8c 3f 6d c0 c7 bf f6 7b 37 40
       0.47578463 1.1001616 -1.5605599 2.866941
000120 cf 8d 57 bf 51 99 a2 bd 2c aa 29 bf 50 96 21 bf
       -0.8420076 -0.07939399 -0.66275287 -0.63119984
000130 86 97 80 bf 70 f0 9e be fd 53 a1 3e 82 23 82 bf
       -1.0046241 -0.31042814 0.3150939 -1.0167086
000140 21 f7 38 bc c0 50 00 40 7b 4b eb 3f d4 44 4b 40
       -0.011289389 2.0049286 1.838241 3.176076
000150 45 f1 d3 be 96 bd d0 3f 77 85 6d bf a4 1b 2a 40
       -0.41395012 1.6307857 -0.92781776 2.657937
000160 fe d4 78 be 3f b5 6d be 22 b1 78 bf 5f c2 78 be
       -0.243 -0.23213671 -0.97145283 -0.24292897
000170 9d ca 61 bf d3 dc 1e bc e0 0c 57 3f 5d fd 92 bf
       -0.8819979 -0.009696203 0.8400402 -1.148357
000180 72 f2 d9 bb c5 21 d3 be 90 d8 06 3f e0 c6 70 3e
       -0.006651216 -0.41236702 0.526742 0.23513365
000190 f5 2b 07 c0 ca 1d c7 bd a5 53 c6 3c 29 8a f4 3e
       -2.112058 -0.09722479 0.024209807 0.47761658
0001a0 a6 f4 64 3f f4 c7 81 c0 00 10 35 c0 0c 2a 89 bf
       0.89435804 -4.0556583 -2.8291016 -1.0715957
0001b0 7c 4a 26 be 71 bd 95 3d 08 f1 ea be 83 e5 ad c0
       -0.16239351 0.07311524 -0.45887017 -5.4342666
0001c0 5e 37 47 bd 68 a9 ee 3e 64 02 cc 3e f8 42 a8 3e
       -0.048636787 0.46613622 0.39845574 0.32863593
0001d0 c1 57 54 3f 14 64 3d 3f f4 7a 96 bf 42 27 f4 3e
       0.829464 0.7398083 -1.1756272 0.476862
0001e0 e1 bd 8b bf b4 15 27 3f a7 5b d9 3e 17 04 41 bd
       -1.0917321 0.6526749 0.42452738 -0.04712304
0001f0 ba f0 20 bf 97 99 c3 3d 62 b2 af 3e ae f7 9e 3e
       -0.6286732 0.09550779 0.34315783 0.3104834
000200 60 8a a4 3d 20 23 dc 3d 10 27 13 bf 94 9c b2 bd
       0.080342054 0.10748887 -0.5748148 -0.08721271
000210 d9 02 f4 bf 0f 91 27 3e a1 bf be be 5f f6 87 3e
       -1.9063369 0.16363929 -0.37255576 0.26555154
000220 14 6d 37 3f 6a 32 0a c0 c8 f0 8a bf 3a d9 ae be
       0.71650815 -2.159327 -1.0854731 -0.34150106
000230 f3 ac 85 3e 65 5d 90 be a1 05 e7 be e6 bb cf bf
       0.26108512 -0.28196254 -0.45121482 -1.6229217
000240 0d 06 1e be b1 29 94 3f da 06 ba 3d 6d d4 db 3f
       -0.15431996 1.1575223 0.09083338 1.7174202
000250 89 a8 3c 3f a3 0a 8d 3f 83 54 c6 bf 9a 87 e5 3f
       0.73694664 1.1018871 -1.5494541 1.7932007
000260 db 05 57 bf f7 ff bb be 14 b7 93 3e ea a8 b3 be
       -0.8399331 -0.36718723 0.28850615 -0.3508981
000270 01 35 01 bf 70 6d 81 3e 9b 3a e5 3e 5f 35 38 3d
       -0.504715 0.25278807 0.44771275 0.044972774
000280 ff 13 11 bd b5 de 49 bd 26 d6 8a bf d2 4f 23 be
       -0.03541946 -0.049284656 -1.0846603 -0.15948418
000290 69 f4 ed 3e 8d 6b 95 be 28 f2 03 bf a5 9b 37 bf
       0.46475533 -0.29183617 -0.51541376 -0.7172187
0002a0 40 e7 dc be dc eb 49 3f 39 ea dc 3e 9f 6d 45 bf
       -0.4314518 0.7887552 0.43147448 -0.77120394
0002b0 b0 d4 27 3e b2 fe 81 be dc fa 8c 3e ef e8 41 3f
       0.16389728 -0.2538963 0.2753514 0.75746053
0002c0 49 78 ce 3e 85 8d 49 3f 50 81 18 3f 08 62 21 3f
       0.40326145 0.78731567 0.59572315 0.6304021
0002d0 29 dc 80 bf 8c 05 18 3f 07 55 06 3d 5e 69 91 3f
       -1.0067188 0.59383464 0.032795932 1.136028
0002e0 bb 5d 1d bf a6 22 c0 bf 00 ac 80 bf 14 ca 2b bf
       -0.61471146 -1.5010574 -1.005249 -0.6710522
0002f0 0c 29 f3 be c2 31 20 3f f1 d1 e2 3d 72 51 68 be
       -0.47492254 0.62575924 0.110751994 -0.22687319
000300 35 f9 23 3e ad a5 61 3f 31 97 44 3e 0b f2 76 be
       0.16013034 0.88143426 0.191983 -0.2411577
000310 c3 68 4e bf 43 6a 58 3e 27 a0 40 be f1 5d 1c be
       -0.80628604 0.21134286 -0.18811093 -0.15270211
000320 be f4 30 3f e2 2d 77 bd 43 22 08 3d a2 5c 84 be
       0.69123447 -0.06034649 0.0332358 -0.25851923
000330 b2 d1 84 3e 5a 65 a5 3d 3e 98 b3 be 39 6e ff bd
       0.25941235 0.08075972 -0.3507709 -0.12472195
000340 f3 5d 19 be c9 1d 10 3c 50 93 6b 3e 36 d9 9b be
       -0.14977245 0.008796164 0.23005414 -0.30439156
000350 ca 51 7c bf a8 74 6e 3d 7f 49 ae 3d d1 9b ad bc
       -0.985623 0.05821672 0.08510112 -0.021192463
000360 20 04 36 3f 23 5e ff be 2b c2 41 bf 3a 49 15 3f
       0.71100044 -0.49876508 -0.756869 0.5831486
000370 04 3b c3 bd bb 81 40 bc 88 20 09 3f 65 5b ee be
       -0.09532741 -0.01174968 0.53565264 -0.46554103
000380 1c 4b 32 3d 47 28 e3 be a9 de 18 bf 8d 95 a3 be
       0.04352866 -0.44366667 -0.5971475 -0.31950036
000390 0c 83 12 c0 d0 f0 17 bf 00 bd 5f 3f 79 8c 78 be
       -2.2892485 -0.59351826 0.87397766 -0.24272336
0003a0 b2 99 76 3f 01 9c 11 bf e8 e5 e9 3e 71 1e 13 bf
       0.9632827 -0.5687867 0.45683217 -0.57468325
0003b0 c8 8c ce 3e a8 55 d6 3d 69 99 57 be ef c8 cd be
       0.40341783 0.104655564 -0.21054615 -0.40192363
0003c0 dd 5a 7e bb 61 54 1c bf ae 6d c1 3e 07 ed f7 bc
       -0.0038811483 -0.6106625 0.3777899 -0.03026439
0003d0 1b 4a b0 be 8e fa 75 3c 04 2c 50 be a6 b2 a2 3e
       -0.34431538 0.01501335 -0.2032929 0.31776923
0003e0 29 fd 0f be d9 bf 09 bf 17 74 19 bd 29 81 1a 3e
       -0.14061417 -0.5380836 -0.037464228 0.15088333
0003f0 8e 1a 23 bf 98 4d 96 bf 1b fe 23 bc ff 12 08 bd
       -0.63712394 -1.174243 -0.010009314 -0.03322124

encoder_variable_selection.single_variable_grns.feed_pressure.fc1.bias f4 [16]
000000 34 8e 02 bf 71 3d 2b be 43 4e a7 bf 72 8c 0b bf
       -0.50998235 -0.16722657 -1.3070759 -0.5451118
000010 6b 01 8e bf 64 c9 ac bf db 48 c9 bf f1 9f 10 be
       -1.1094183 -1.349896 -1.5725359 -0.14123513
000020 73 fe 8c bf f5 0e 3b bf 8e a8 76 3f 16 68 91 bf
       -1.1015152 -0.730697 0.96350944 -1.135989
000030 e7 e6 f4 be d4 2f f8 be 2b 69 6d be d1 25 87 be
       -0.47832415 -0.4847399 -0.2318465 -0.2639604

encoder_variable_selection.single_variable_grns.feed_pressure.fc2.weight f4 [16, 16]
000000 0c 23 4b 3e 11 16 b3 3e 31 4e 2a 40 76 5d c8 3e
       0.19837588 0.34977773 2.6610224 0.39133805
000010 c2 57 bb 3f c4 bc 61 40 bb 18 10 40 ee 10 c4 3d
       1.4636157 3.5271463 2.2515094 0.095735416
000020 bc 22 6f 3f f4 40 53 3f 84 20 0c bf 7e 24 d5 3f
       0.93412375 0.82520986 -0.54737115 1.6651762
000030 68 0a a8 3e 41 e5 a4 3e c4 bf 5f 3e 4f 88 ba 3d
       0.3282044 0.32206157 0.21850497 0.0910803
000040 6d 0d 7a bf 16 12 76 be 81 2d fd 3e 0a 7f 76 3f
       -0.97676736 -0.24030337 0.4944878 0.96287596
000050 39 79 41 3f 4a b9 59 3e 5f cf 8f 3f ab 2e a2 3f
       0.75575596 0.21262088 1.123516 1.2670492
000060 9b 2e 63 bf 24 d2 b3 3f 1f 2d 3f 3e f9 48 de 3c
       -0.8874299 1.4048505 0.18669556 0.027134405
000070 c9 7c 6c be 8b 98 63 be e2 9a bc bf 6f 21 aa 3e
       -0.23094477 -0.2222616 -1.4734766 0.33228633
000080 81 0e 50 bf 12 e2 0c 3e 48 16 e9 bf 49 f9 07 bf
       -0.8127213 0.13758114 -1.8209925 -0.53114754
000090 6b 7f d5 bf 68 87 00 c0 a4 5d 8c bf b6 47 3c 3c
       -1.667951 -2.0082645 -1.0966077 0.011491707
0000a0 e3 6a 26 bf a5 4b 99 bf 63 ae 0f 3f 69 5a 8b bf
       -0.65006846 -1.197621 0.5612547 -1.0886966
0000b0 42 2a 99 bd ff 80 23 bf f4 00 86 bf c6 10 ad bd
       -0.07478763 -0.6386871 -1.0469041 -0.08450465
0000c0 12 50 61 bf bd ff ab 3e cb be c9 3e 5b fa 7b 3f
       -0.880128 0.3359355 0.39403376 0.9842889
0000d0 56 04 9e 3e 0f 68 5f be 95 80 8b 3f aa bc 9e 3f
       0.30862683 -0.21817039 1.0898615 1.2401326
0000e0 04 52 50 be 94 64 9e 3f 62 c3 7d 3e f0 98 0e 3e
       -0.20343786 1.2374444 0.24781564 0.13925529
0000f0 f7 03 6e 3d 19 43 d0 be d4 8d bb bf 47 37 5d bc
       0.05810925 -0.4067619 -1.4652658 -0.013501949
000100 1d 55 c9 3f ec 0e b8 3d 30 bd 15 bf 9f 80 cc bf
       1.57291 0.08987221 -0.584918 -1.5976752
000110 59 e5 96 be 61 ac 4d be 99 ae fa be bd 67 69 bf
       -0.29471853 -0.20085289 -0.48961332 -0.9117392
000120 6f ca 06 3f f2 bc 8e bf f6 32 0e be 23 96 45 bf
       0.5265264 -1.1151412 -0.13886628 -0.77182215
000130 5e ea 7d 3f ce 46 53 3e 83 2d f8 3f 9e ea 93 bd
       0.9918574 0.20632479 1.9388889 -0.07222484
000140 19 6b 49 bf e2 ee d4 bb ef 99 3d 3d 2d 4e 98 3f
       -0.78679043 -0.0064982036 0.04628938 1.1898857
000150 2d 61 d3 3e 33 33 64 3e 40 81 bc 3e f9 88 90 3f
       0.41285077 0.22285156 0.3681736 1.1291801
000160 6e b1 1d be 7c 7c bf 3f 5c fb 21 3f ed 5c e9 3d
       -0.15399715 1.4959865 0.6327417 0.11394677
000170 81 08 e4 bd 1a 6e 40 be 27 ca 90 bf 43 a7 f0 be
       -0.111344345 -0.18792 -1.1311692 -0.4700261
000180 cf a2 26 bf b7 bd 59 be ff 7e be 3e 1d b4 c2 3f
       -0.65092176 -0.21263777 0.37206265 1.5211216
000190 3d 1e 61 3e 8b 5c cd 3e b0 1e ab 3e e3 2d 6b 3f
       0.21984191 0.40109667 0.3342185 0.9186689
0001a0 9c 1e f9 3e 84 c9 9a 3f 61 59 2e 3e 18 f6 ae 3b
       0.48656166 1.2092748 0.17026283 0.0053393953
0001b0 f5 29 0f bf 4a 26 44 3e f9 6c 8d bf 1e a8 0d be
       -0.55923396 0.19155231 -1.1048881 -0.13833663
0001c0 fe 5a ea bd 6d 12 1e 3d 86 a1 20 40 22 bb ef be
       -0.11443137 0.03859179 2.5098586 -0.46822459
0001d0 04 cb 81 3f 83 20 5f 40 08 85 1e 40 7c 1b 85 be
       1.014008 3.4863594 2.4768696 -0.2599753
0001e0 18 8e b9 3e fb 7c 9c 3e 95 58 ab bf e3 f2 02 40
       0.3624122 0.30564103 -1.3386408 2.0460746
0001f0 e5 5e 16 3e c0 4d 0b be 8a fb 59 3e ef ce 01 3f
       0.14684637 -0.13603878 0.21287361 0.5070638
000200 8b 64 fa 3e a3 e7 a5 3d a8 9d 7e 3f c9 36 07 3f
       0.48904833 0.08100822 0.99459314 0.5281797
000210 a8 b2 af 3f 70 4f ec 3f ef 3d 7c 3f b2 5a 27 be
       1.3726397 1.8461742 0.98532003 -0.16343191
000220 a9 28 87 3f 7e 1e 3f 3f ca 1d 7e bf 6d c7 f1 3f
       1.0559283 0.746559 -0.99264205 1.8888985
000230 c7 5e 1e 3f 0f dc ad 3e 91 5c 1a 3f 12 61 4d 3e
       0.6186337 0.33956954 0.60297495 0.2005656
000240 91 24 45 3e 8a 0e 89 be 4a 32 0f 40 62 e7 95 3f
       0.1925223 -0.26768905 2.2374444 1.1711237
000250 1e 5b 00 40 4f 8e cd 3f fd f5 d2 3f 51 75 a8 be
       2.0055614 1.6059054 1.648132 -0.32902005
000260 19 72 05 3f a5 fb 94 3f de 01 95 bf 68 31 f3 3f
       0.52127224 1.1639296 -1.1641195 1.8999453
000270 51 71 86 3e 23 40 78 be cd 4d 8b 3e 21 49 f7 bc
       0.2625833 -0.24243216 0.27207795 -0.030186238
000280 c0 84 a1 3f 09 4a 02 3f 96 0a 0d bf 11 10 da bf
       1.2618637 0.5089422 -0.5509428 -1.7036153
000290 1d 20 24 bf b0 99 2c bf 40 7c 22 3e 46 3b 44 bf
       -0.641115 -0.6742201 0.1586771 -0.76652944
0002a0 8a fc 97 3e 7d 53 c2 bf 48 24 ef 3d c6 47 26 be
       0.2968486 -1.5181729 0.11676842 -0.16238317
0002b0 20 2c a3 3f 97 ab 21 3f 0e 5a 00 40 d3 9a 36 3e
       1.2747841 0.6315245 2.0054965 0.17832498
0002c0 63 b8 8f 3e e6 bc 49 3d 20 30 a9 3f b3 62 4d 3f
       0.28070363 0.049252413 1.3217812 0.8022873
0002d0 70 8f 9f 3f d5 b0 02 40 10 a3 a5 3f 75 8e 87 be
       1.2465649 2.042043 1.2940388 -0.26475874
0002e0 8b 0a bf 3f 47 7b 71 3f 9e 81 50 be 97 cf 03 40
       1.4925092 0.9432873 -0.20361945 2.0595453
0002f0 82 a4 c5 bd 49 4d 1e 3f c1 97 06 3f 5d 9b 6b 3e
       -0.09650518 0.6183668 0.5257531 0.23008485
000300 a3 ea 7f bf 95 7e ea bd ba 8e ab bf af 8a 88 bf
       -0.999674 -0.11449925 -1.3402932 -1.0667323
000310 2c 66 8a bf f9 cd bb bf 79 89 3d bf dd 01 5d bf
       -1.081243 -1.4672233 -0.7403789 -0.8633097
000320 2e 6a 94 bf 34 34 15 bf bf 3d ef 3e bb 37 a3 bf
       -1.1594903 -0.5828278 0.46726796 -1.2751383
000330 39 57 17 bf 46 1a bd be 4b fc 8b bf c6 c4 8c bd
       -0.59117466 -0.36934108 -1.0936369 -0.06873469
000340 f5 2c 6b 3f d0 90 a6 be 1a 21 1c bf f5 e2 7d bf
       0.91865474 -0.32532358 -0.6098801 -0.99174434
000350 46 91 c4 bd d0 a9 0c 3f b8 5f 75 bc ce 47 62 bf
       -0.09598021 0.54946613 -0.014976434 -0.88390815
000360 a9 6b 00 3f 34 ce a2 bf 75 ea a1 3d d0 54 09 bf
       0.50164276 -1.2719178 0.07906047 -0.5364504
000370 6a 6d b1 bc 3a b9 ac 3e 55 98 8e 3f d8 b8 e9 3d
       -0.021658618 0.33735067 1.1140238 0.11412209
000380 66 7b 52 3f c8 ea 83 3e dd 84 31 40 c6 c4 8c 3f
       0.8221954 0.2576506 2.7737343 1.099755
000390 e0 19 17 40 07 ca 3f 40 95 d1 46 40 df 69 f8 3d
       2.3609543 2.9967058 3.1065419 0.12129568
0003a0 a6 1e c7 3f 67 05 ab 3f 7a 7a d5 be 0e 73 aa 3f
       1.5556228 1.3361024 -0.41695005 1.3316362
0003b0 7e dd 2a be d6 ad 43 3f 7f 6b fe 3e e9 18 a0 be
       -0.16686055 0.7643713 0.49691388 -0.31269005
0003c0 ee 65 e4 3e 6a a7 78 be 6a b5 c4 3f 52 07 52 3e
       0.44609016 -0.24282613 1.5367863 0.20510605
0003d0 74 4a 3d 3f 5a 49 b6 3f b6 4c b0 3f a4 87 a2 bd
       0.7394173 1.4241135 1.377341 -0.07936028
0003e0 05 b4 25 3f 6d d2 8f 3e 5d ca bc be cd 00 d8 3f
       0.64727813 0.2809023 -0.3687314 1.6875244
0003f0 22 fb 16 3f 61 3e 94 3e 8a ae 02 3f b7 6c d3 3e
       0.5897695 0.2895384 0.51047575 0.4129388

encoder_variable_selection.single_variable_grns.feed_pressure.fc2.bias f4 [16]
000000 fa 9f 19 c0 cc d4 99 be 0c d2 c7 3f 8d e7 cb be
       -2.4003892 -0.30045164 1.5610976 -0.39825097
000010 08 28 fe 3e 47 ab c3 bd 53 54 0e bf 86 51 1d c0
       0.49639916 -0.09554153 -0.5559742 -2.4581008
000020 19 34 ab bf 94 df f5 bf 5d f1 c9 3e c4 30 e8 bf
       -1.3375274 -1.9208856 0.39441958 -1.8139882
000030 fb 39 b4 3f 0f 6a 03 be 75 e6 02 c0 5e 4a d5 bf
       1.4080194 -0.12833427 -2.045316 -1.666332

encoder_variable_selection.single_variable_grns.feed_pressure.gate_norm.glu.fc.weight f4 [32, 16]
000000 64 24 6a be a6 ba 1e bf 23 9f c6 3e cd ba 96 bf
       -0.22865444 -0.6200355 0.38793287 -1.1775757
000010 26 90 59 3f 07 3f 81 bf d6 c3 41 bf 20 52 1a 3f
       0.8498558 -1.009736 -0.75689447 0.6028156
000020 0d c8 fd bd e9 0b 60 3e 3a aa 37 3f 51 c7 cd 3e
       -0.12391672 0.21879543 0.7174412 0.4019113
000030 04 5e 55 3e 56 20 03 3f d1 80 b9 3e af c6 64 3e
       0.20836645 0.51221216 0.36231092 0.22341417
000040 ad 27 b2 3f 26 44 5a 3f 35 ce cd be b8 b2 49 3f
       1.3918358 0.85260236 -0.40196386 0.7878833
000050 f9 6e 80 bf b6 5a 09 3f e6 f3 81 3f 72 97 28 40
       -1.0033866 0.5365404 1.0152557 2.6342435
000060 c4 04 47 bd d5 09 32 3f 5c 5b bf be 9b af 18 3f
       -0.04858853 0.6954625 -0.3737439 0.5964295
000070 00 4b 0b bf 4d 12 d2 be 90 18 95 3d f7 2a 2c 3f
       -0.54411316 -0.41029587 0.072800756 0.6725306
000080 59 e5 8f 3f 7b 8e 77 3f a4 fd 8f 3d a0 2e 3d be
       1.1241866 0.9670178 0.070308 -0.18474817
000090 98 4f a7 3e 67 d7 d8 3d 56 e8 21 be 54 e2 b5 3f
       0.32677913 0.1058796 -0.15811285 1.4209695
0000a0 96 6f f8 bd f7 8a 43 bd ff 9a 3f be 99 b8 ac 3e
       -0.12130658 -0.04773995 -0.1871147 0.33734587
0000b0 43 37 0e 3f 9f e4 ce 3e 96 8d 0a 3f 43 ee 00 3e
       0.5555307 0.404088 0.54122293 0.1259089
0000c0 40 a0 50 3f fa 9f c8 3f 1a 9f 11 3c 7e 14 17 3f
       0.8149452 1.5673821 0.00888803 0.59015644
0000d0 62 fc 81 bf ad 42 b1 3d be d3 31 3f 5f fd 0b 40
       -1.0155146 0.086552955 0.6946372 2.1873395
0000e0 3f f3 b7 be 63 9b 9d 3e 45 54 16 bf 6d dd 06 3f
       -0.3592777 0.30782613 -0.58722335 0.5268162
0000f0 71 03 bc bf ac f9 80 bf e1 e2 fd 3e eb aa 81 3f
       -1.468855 -1.0076194 0.49587157 1.0130285
000100 9a eb 80 3e 93 64 dc 3e 2e 2f 40 bd 98 b5 ae 3f
       0.2517975 0.43045482 -0.046919994 1.3649168
000110 7b 48 56 bf 3c f1 c7 3e 28 62 7e 3f a6 43 9c 3e
       -0.83704346 0.39051235 0.99368525 0.30520362
000120 6e a9 92 bf 90 6f 5b be ba 71 89 bd fd fa a0 be
       -1.1457956 -0.21429276 -0.06711145 -0.3144149
000130 de fd 59 be b0 ac ea be de 34 7b 3e 6e e3 40 bf
       -0.21288249 -0.45834875 0.24531886 -0.7534703
000140 d3 d0 8f 3e b5 a7 99 3e a6 78 2b bf ce 59 c0 3e
       0.28089008 0.30010763 -0.6698097 0.37568516
000150 a5 89 0f 3e e9 16 18 3f 00 b0 f6 bd fd c8 23 be
       0.14017351 0.5940996 -0.12045288 -0.1599464
000160 ac 84 4d 3f c8 69 87 3e f7 26 c2 3c af 8c 95 3f
       0.80280566 0.26447892 0.02370022 1.1683558
000170 07 33 96 bf 5f cf b5 bc 01 63 d2 3e b5 48 9d 3f
       -1.1734322 -0.022193609 0.4109116 1.2287813
000180 a5 8d 5d be b8 f5 cb bf 7d b3 fc bc 2a ab ee bf
       -0.21636064 -1.5934362 -0.030847305 -1.8645985
000190 7a 07 c7 3f 7a cb f1 bf 45 21 57 bf 6e c6 d4 be
       1.5549157 -1.8890221 -0.8403514 -0.4155764
0001a0 75 26 94 3e 23 a5 11 be 44 7f c2 3f eb bd 2c bd
       0.2893559 -0.14223151 1.5195088 -0.042173307
0001b0 7f 85 bd be a0 84 0a 40 3c 3c 0f be 2c d4 c6 3e
       -0.37015912 2.1643448 -0.13987821 0.3883375
0001c0 93 5e 86 bf d7 96 52 be 89 de fa 3f 14 32 cb be
       -1.0497612 -0.20565353 1.9599162 -0.39686644
0001d0 f9 c2 f4 3e 29 23 bb 3d 00 33 87 be a1 d2 82 bf
       0.47805002 0.09137566 -0.26406097 -1.0220529
0001e0 c3 84 88 bf 90 c9 9a bf 93 6d cf 3e 53 af bd bf
       -1.0665516 -1.2092762 0.40513286 -1.481913
0001f0 67 7c f7 3f b3 23 96 3e 1a 8c c4 bf b5 54 d6 bf
       1.933484 0.2932411 -1.5355256 -1.67446
000200 99 b9 8f 3e 4a 4d ac bd c2 f6 73 bf 84 e7 19 bd
       0.28071287 -0.08413179 -0.952984 -0.037574306
000210 0e 23 56 3e b3 60 88 3e 45 39 13 3e 59 52 dd 3e
       0.2091181 0.26636276 0.14377315 0.4322689
000220 67 df 41 3f 7d 13 23 3f 01 28 b3 3d c2 0b 7e be
       0.7573151 0.6370161 0.087478645 -0.24809173
000230 55 f2 8a bd 2b bb e6 be 9d ce 06 3f d6 b8 5a 3f
       -0.067845024 -0.45064673 0.52659017 0.8543829
000240 09 57 91 bc f7 ee 1a 3f fe 13 c6 3e 59 ae 4c 3f
       -0.017741697 0.6052088 0.38687128 0.79953533
000250 ab af 89 bf 30 93 ae 3f b0 b7 89 3f e0 6d 3f bf
       -1.0756735 1.3638668 1.0759182 -0.7477703
000260 35 49 5e 3b ae 17 87 3e 10 d3 ac bf bc 3a 96 3e
       0.0033918147 0.26385254 -1.3501911 0.29341686
000270 67 31 b5 be ec b4 05 bf ef 8d d0 bd 1b 6c 86 3e
       -0.35389253 -0.5222919 -0.10183322 0.26254353
000280 56 a0 c2 3e 0c 37 c5 3f b7 7a 9a be b1 b6 88 3f
       0.38012952 1.5407424 -0.3017175 1.0680753
000290 b0 25 0b c0 53 66 d1 3f bc a3 fe 3f 70 cd 32 3c
       -2.1741753 1.6359352 1.9893718 0.010913238
0002a0 37 d5 b3 3d 67 de 96 3e 28 0e 12 c0 4f 11 2c 3f
       0.08780902 0.29466555 -2.282114 0.6721391
0002b0 fb 10 ac bf c4 47 ad be 57 75 c5 3e 0e ad 02 3f
       -1.3442682 -0.33843815 0.38566086 0.5104531
0002c0 b3 a2 3d bf 06 b8 19 bb fb c0 b4 3e fe f0 88 bc
       -0.74076384 -0.0023455634 0.35303482 -0.016716477
0002d0 cc 5f 87 be ca 69 10 3f 96 ca ba 3e 24 f4 f7 3e
       -0.26440275 0.5641142 0.36482686 0.48428452
0002e0 af 74 b1 be 8c ec 1e be ca e2 a3 be da 5a 98 be
       -0.34659335 -0.15519923 -0.32008964 -0.29756814
0002f0 27 ae f3 bd 4e 5e cd be e8 37 20 bd 50 c4 73 bf
       -0.11898451 -0.4011101 -0.039115816 -0.95221424
000300 e5 ec a8 3f 57 4b a5 3e 6c 21 2c bf 15 6b 9a be
       1.3197294 0.32284042 -0.672385 -0.30159822
000310 44 2d 22 be 85 f7 58 bf 37 b6 bd be bd 4e 0b 40
       -0.1583758 -0.84752685 -0.3705308 2.1766808
000320 ff 90 0b 3f cc 20 1b 3f bd db ee 3d ce ae 20 3f
       0.5451812 0.6059692 0.116630055 0.6276673
000330 11 43 76 bd e6 2c d3 3e fc 53 3a 3f 9f a4 af be
       -0.060122553 0.41245192 0.727844 -0.34305283
000340 20 da a4 bd d2 df 10 c0 88 e6 4d 3e 28 c0 14 c0
       -0.080494165 -2.263661 0.20107472 -2.3242283
000350 58 df ec 3f b8 78 1d c0 85 6e 03 c0 5a ec f7 3d
       1.8505659 -2.460493 -2.0536206 0.12105627
000360 25 e0 83 bd 9a 08 ee 3d 67 64 f7 3f 44 2d 4b 3e
       -0.064392366 0.11622734 1.9327515 0.19841486
000370 8c f1 2d 3e f5 96 d3 3f cb cb d4 bd d2 86 c4 bd
       0.16986674 1.6530443 -0.10390433 -0.095960274
000380 d3 83 12 c0 8e 0b 6b bf ad 6d 2c 3f b6 ae 1d bf
       -2.289296 -0.91814506 0.6735485 -0.6159471
000390 20 0f 91 3e 86 34 c7 bd d0 d6 9a be 8e b8 f9 bf
       0.28331852 -0.09726815 -0.30242014 -1.9509447
0003a0 54 12 c3 bf f1 7d e8 bf cc 88 7c 3f 66 a7 61 bf
       -1.5239968 -1.8163434 0.98646235 -0.88146055
0003b0 ff 22 b7 be 9e c9 78 3e 79 cf 2a bf 8c 39 17 bf
       -0.35768887 0.24295661 -0.6672283 -0.59072185
0003c0 d0 95 96 3f d6 fc 7b 3e 4e 50 8f be 92 7c eb 3e
       1.1764469 0.24608168 -0.27990955 0.45993477
0003d0 5e 74 21 bf 7d eb d5 be 4d 56 5c bc b8 36 90 3f
       -0.6306819 -0.41781226 -0.01344831 1.1266699
0003e0 c9 83 1e 3f 6c 51 3e 3f 63 79 92 bd 25 66 37 3e
       0.6191984 0.7434299 -0.07152059 0.17910059
0003f0 83 27 0e bb f1 e9 1a bf 9f f0 09 3f d2 71 b9 3e
       -0.0021691031 -0.60513216 0.53882784 0.3621965
